…
uot;http://www.w3.org/Graphics/SVG/1.1/DTD/svg11.dtd&quot;&gt; 2020-11-16T20:33:27.228490 image/svg+xml Matplotlib v3.3.2, https://matplotlib.org/ Loading the VGG16 Model . Next we will load the VGG16 model and print out summary information. . model = VGG16() model.summary() . Model: &#34;vgg16&#34; _________________________________________________________________ Layer (type) Output Shape Param # ================================================================= input_2 (InputLayer) [(None, 224, 224, 3)] 0 _________________________________________________________________ block1_conv1 (Conv2D) (None, 224, 224, 64) 1792 _________________________________________________________________ block1_conv2 (Conv2D) (None, 224, 224, 64) 36928 _________________________________________________________________ block1_pool (MaxPooling2D) (None, 112, 112, 64) 0 _________________________________________________________________ block2_conv1 (Conv2D) (None, 112, 112, 128) 73856 _________________________________________________________________ block2_conv2 (Conv2D) (None, 112, 112, 128) 147584 _________________________________________________________________ block2_pool (MaxPooling2D) (None, 56, 56, 128) 0 _________________________________________________________________ block3_conv1 (Conv2D) (None, 56, 56, 256) 295168 _________________________________________________________________ block3_conv2 (Conv2D) (None, 56, 56, 256) 590080 _________________________________________________________________ block3_conv3 (Conv2D) (None, 56, 56, 256) 590080 _________________________________________________________________ block3_pool (MaxPooling2D) (None, 28, 28, 256) 0 _________________________________________________________________ block4_conv1 (Conv2D) (None, 28, 28, 512) 1180160 _________________________________________________________________ block4_conv2 (Conv2D) (None, 28, 28, 512) 2359808 _________________________________________________________________ block4_conv3 (Conv2D) (None, 28, 28, 512) 2359808 _________________________________________________________________ block4_pool (MaxPooling2D) (None, 14, 14, 512) 0 _________________________________________________________________ block5_conv1 (Conv2D) (None, 14, 14, 512) 2359808 _________________________________________________________________ block5_conv2 (Conv2D) (None, 14, 14, 512) 2359808 _________________________________________________________________ block5_conv3 (Conv2D) (None, 14, 14, 512) 2359808 _________________________________________________________________ block5_pool (MaxPooling2D) (None, 7, 7, 512) 0 _________________________________________________________________ flatten (Flatten) (None, 25088) 0 _________________________________________________________________ fc1 (Dense) (None, 4096) 102764544 _________________________________________________________________ fc2 (Dense) (None, 4096) 16781312 _________________________________________________________________ predictions (Dense) (None, 1000) 4097000 ================================================================= Total params: 138,357,544 Trainable params: 138,357,544 Non-trainable params: 0 _________________________________________________________________ . A closer look at the convolutional layers . print(&quot;{:3s}: {:12s}: {:18s} {} n&quot;.format(&#39;pos&#39;,&#39;layer name&#39;,&#39;filter shape&#39;,&#39;output shape&#39;)) for i,layer in enumerate(model.layers): if &#39;conv&#39; in layer.name: filters, biases = layer.get_weights() print(&quot;{:3d}: {:12s} {:18s} {} &quot;.format(i,layer.name, str(filters.shape),str(layer.output.shape))) . pos: layer name : filter shape output shape 1: block1_conv1 (3, 3, 3, 64) (None, 224, 224, 64) 2: block1_conv2 (3, 3, 64, 64) (None, 224, 224, 64) 4: block2_conv1 (3, 3, 64, 128) (None, 112, 112, 128) 5: block2_conv2 (3, 3, 128, 128) (None, 112, 112, 128) 7: block3_conv1 (3, 3, 128, 256) (None, 56, 56, 256) 8: block3_conv2 (3, 3, 256, 256) (None, 56, 56, 256) 9: block3_conv3 (3, 3, 256, 256) (None, 56, 56, 256) 11: block4_conv1 (3, 3, 256, 512) (None, 28, 28, 512) 12: block4_conv2 (3, 3, 512, 512) (None, 28, 28, 512) 13: block4_conv3 (3, 3, 512, 512) (None, 28, 28, 512) 15: block5_conv1 (3, 3, 512, 512) (None, 14, 14, 512) 16: block5_conv2 (3, 3, 512, 512) (None, 14, 14, 512) 17: block5_conv3 (3, 3, 512, 512) (None, 14, 14, 512) . A sub model of VGG16 . Next we will define a submodel of VGG16 containing only the first convolutional layer . layer_one_model = tf.keras.Model(inputs=model.inputs, outputs=model.layers[1].output) layer_one_model.summary() . Model: &#34;model_1&#34; _________________________________________________________________ Layer (type) Output Shape Param # ================================================================= input_2 (InputLayer) [(None, 224, 224, 3)] 0 _________________________________________________________________ block1_conv1 (Conv2D) (None, 224, 224, 64) 1792 ================================================================= Total params: 1,792 Trainable params: 1,792 Non-trainable params: 0 _________________________________________________________________ . Visualizing feature maps . Finally the fruit of our efforts, we apply the above defined submodel of VGG16 on our input image to see the 64 feature maps which are the output of the convolutional lay
…
ython/tf/transpose . | tf.reshape https://www.tensorflow.org/api_docs/python/tf/reshape . | . If you are not familiar with these operation I highly recommend to have a look at the examples given in the documentation linked above and play around with them. . The following implemention of the classes ImageToPatches and PatchesToImage include the possiblity to print out a summary of the shape transitions of the input occuring during a call. Normally debugging during implemention would do the job of course. . In our concrete example, we will get the following shape transitions: . ImageToPatches . (1, 1080, 1080, 3) -&gt; (1, 1080, 2, 540, 3) | (1, 1080, 2, 540, 3) -&gt; (1, 2, 1080, 540, 3) | (1, 2, 1080, 540, 3) -&gt; (4, 540, 540, 3) | PatchesToImage . (4, 540, 540, 3) -&gt; (1, 2, 1080, 540, 3) | (1, 2, 1080, 540, 3) -&gt; (1, 1080, 2, 540, 3) | (1, 1080, 2, 540, 3) -&gt; (1, 1080, 1080, 3) | Later on when we are working with Keras Models the summary method of the Model class will provide this information among other useful data. . class Patchwork(tf.keras.layers.Layer): def __init__(self, image_shape, patch_size): super(Patchwork, self).__init__() self.image_shape = image_shape self.patch_size = patch_size def call(self,input): self.shapes = [] self._store_sh
…
tch_size, -1, self.image_shape[0], self.patch_size[1], self.image_shape[2]]) self._store_shape(x) x = tf.transpose(x, [0, 2, 1, 3, 4]) self._store_shape(x) x = tf.reshape( x, [-1, self.image_shape[0], self.image_shape[1], self.image_shape[2]]) self._store_shape(x) return x . Decomposing the image . image_shape = image_np_array.shape patch_size = (image_shape[0]//2,image_shape[1]//2) image_to_patches_layer = ImageToPatches(image_shape,patch_size) patches = image_to_patches_layer(image_np_array_batch) image_to_patches_layer.print_transition_summary() . ImageToPatches input shape transitions: 1: (1, 1080, 1080, 3) -&gt; (1, 1080, 2, 540, 3) 2: (1, 1080, 2, 540, 3) -&gt; (1, 2, 1080, 540, 3) 3: (1, 2, 1080, 540, 3) -&gt; (4, 540, 540, 3) . The glorious result . f, axarr = plt.subplots(2,2) f.set_figheight(12) f.set_figwidth(12) for idx, image_np_array in enumerate(patches): row = idx // 2 col = idx % 2 axarr[col,row].imshow(image_np_array/255.) plt.show() . &lt;!DOCTYPE svg PUBLIC &quot;-//W3C//DTD SVG 1.1//EN&quot; &quot;http://www.w3.org/Graphics/SVG/1.1/DTD/svg11.dtd&quot;&gt; 2020-11-01T13:50:04.299987 image/svg+xml Matplotlib v3.3.2, https://matplotlib.org/ Recomposing the original image from the patch . patches_to_image_layer = PatchesToImage(image_shape,patch_size) recomposed_image = patches_to_image_layer(patches) patches_to_image_layer.print_transition_summary() plt.figure(figsize=(12,12)) plt.title(&#39;Recomposed Image&#39;) plt.imshow(recomposed_image[0]/255.0) plt.show() . PatchesToImage input shape transitions: 1: (4, 540, 540, 3) -&gt; (1, 2, 1080, 540, 3) 2: (1, 2, 1080, 540, 3) -&gt; (1, 1080, 2, 540, 3) 3: (1, 1080, 2, 540, 3) -&gt; (1, 1080, 1080, 3) . &lt;!DOCTYPE svg PUBLIC &quot;-//W3C//DTD SVG 1.1//EN&quot; &quot;http://www.w3.org/Graphics/SVG/1.1/DTD/svg11.dtd&quot;&gt; 2020-11-01T13:50:05.194234 image/svg+xml Matplotlib v3.3.2, https://matplotlib.org/ Let&#39;s play . Having the patches of the image at our fingertips, why not trying to be funny by changing the order of the patches before putting them together agai
…
